深度学习/作业&练习/HW1/models/model.ckpt (torch, 17211 bytes, 7 tensors)

layers.0.weight f4 [32, 93]
00000000: a013 143c e2d3 c83d 7cc8 8c3d 80be 61bb
00000010: dc58 b53d 70b0 ab3c 3437 c9bc b46b 1c3d
00000020: 7c3b 433d a033 713c 9c17 a3bc c81e 97bc
00000030: 0840 98bc 74b3 83bc b8fb bd3c 80dd 743c
00000040: 84a3 5d3d e050 c13c 3e54 ce3d 3e93 993d
00000050: 76cf 9a3d f2e4 84bd 2cfa 953d ccfb a83d
00000060: 581c 8b3d 3d17 42bd 7cd4 6b3d c4c1 a23d
00000070: 1d13 cdbd c82f 943d 2cea 7e3d 04ab bbbd
00000080: e886 5ebc 02e7 04bd b096 85bc 88bb 333d
00000090: 145e d6bc 0348 a4bd f062 2e3d 98c2 683d
000000a0: c827 8bbc 02f1 cf3d cc64 a0bc 7334 99bd
000000b0: 1e11 98bd b8d5 a1bd 9001 9c3d 3464 ddbc
000000c0: 00f7 293d 0571 94bd 563f 92bd 300c 9e3d
000000d0: 7403 313d e6de 2fbd 4cd2 5c3d d819 74bd
000000e0: a0c5 f2bb 1cfa 94bd 60e6 dc3c a8e8 65bc
000000f0: 0a5d 99bd a8ab 9fbd 5826 ebbc d83f ad3c
00000100: 51c6 42bd 205d 9abd 206e 623d b058 c23c
00000110: cc3e d23d 9ab2 a93d 90ee 3d3d fc69 833d
00000120: 0019 a7bd 8930 76bd c026 913d f261 ce3d
00000130: fad6 933d 90f7 0dbd a83b 983d 20ee d0bd
00000140: 184d 1d3d 747e afbc 1086 883d 2a71 c13d
00000150: 1cbf ce3d 28cf c83d 5080 7a3d e4f3 e0bc
00000160: 0075 53bb 4c6c b3bc cef8 913d 90ff 903b
00000170: 1e9c 4ebd ebf4 42bd aa91 57bd 5874 7a3c
00000180: ef32 d23d 2f04 9e3b 4915 e9bd e30a 8d3c
00000190: 5120 08bd bb61 903d 0d59 ff3d 40cf 49bd
000001a0: e886 41bd f33b 14bc 8aaa 6f3b 3b17 fc3c
000001b0: dcf2 86bd a566 263d 909f 90bb db99 093a
000001c0: af6e 00be 294e 4dbd ff52 103d 9cd5 3abc
000001d0: 706e 63bd 63e0 6ebd 4f3c 0fbd 9326 f13c
000001e0: 6fcc 203d 4cbb 88bd cc8d 21bd e081 91bd
000001f0: c30d 81bb 6f85 c7bd 7fa5 db3b 3b3a 2bbd
00000200: d46b 84bd 549a 16bd 4939 533c 60fb b6bd
00000210: 6597 26be e09d 73bd 9d33 0bbe 08ff 4a3c
00000220: 32d3 413d a34c d3bc 6869 4e3d 5143 6b3c
00000230: 4e1b c2bd b6eb 033d 1e85 14be 2647 09be
00000240: 22ed dcbd 6764 c3bd 36aa 23bd 7d0d 72bc
00000250: d719 463d f9d9 7abd 675c e9bd 3d21 c6bc
00000260: 0be9 3ebd 470c f8bd eb22 88bd 3997 c2bd
00000270: d754 003b 0c45 f03a 5247 35ba 4b50 aebb
00000280: d7b8 9ebd b597 103d 9ea7 75bc 1189 a1bc
00000290: 81bd 01be d96a a1bd 8ff1 21bc 526f 103d
000002a0: 6b40 22be dac6 aebd 6b1b 9dbd 90e2 bdbd
000002b0: c782 c3bd 4461 c3bd 7513 1ebd f910 1f3c
000002c0: b2af e93c a761 09bb 7463 2abd 744f 52bd
000002d0: feb7 9b3b 920c 3ebd 6d01 eb3b ab24 b0bd
000002e0: 11f0 eebd eb58 17bd aac8 883d 5c1c 88bd
000002f0: 6cd0 f6bc b4c4 c3bc bb9f 73bd e84a 9d3d
00000300: f29d 03bd 68d3 0fbd 8029 5f3d f8a8 2b3d
00000310: 6020 babc 69d8 28bd f669 a03d 2e27 873d
00000320: 129d 983d 5ca8 a73d 6203 bf3d 404d 8bba
00000330: c0d6 debb 1e4c 85bd 5e88 b03d dc9d 593d
00000340: 10b9 543c 7c2b af3d 2d4c b0bd c09d ca3d
00000350: 80e7 0fbd 8839 a3bd 2299 32bd 70f9 cd3d
00000360: 0071 353b d422 bdbd 2439 bebc 9834 be3c
00000370: 0a5a 963d b8b2 673d e0a7 48bb 58e8 dc3c
00000380: 18f1 debc ead1 883d 6866 643d 2c33 66bd
00000390: be68 c23d aaf8 8c3d 2ca5 383d be9a 883d
000003a0: 2448 bcbd f4ac 9f3c 48c8 e2bc 4623 bbbd
000003b0: 3096 92bc 02ab 08bd 500e 543d b4fb a73d
000003c0: 323f a23d 00e4 d4b8 9e78 1bbd 443c 6c3d
000003d0: c6df adbd 6004 c93b e322 87bd a0b7 c83b
000003e0: db86 87bd 3093 4ebc bfe7 37bd 8024 323a
000003f0: 507b 873b c958 a4bd f89c 573d f67d b03d
0.009037882 0.098060384 0.06874177 -0.0034445822 0.08854839 0.020958155 -0.024562456 0.03818865
0.04766415 0.014721781 -0.019908719 -0.018447295 -0.01858522 -0.01607678 0.023191318 0.014945388
0.05411102 0.023598135 0.10074662 0.07498787 0.07559101 -0.0648898 0.07323107 0.082511514
0.067925155 -0.047385443 0.057575688 0.07947114 -0.10013411 0.07235676 0.062235042 -0.09163478
-0.013581969 -0.03244687 -0.016307205 0.043880016 -0.026167907 -0.08021548 0.042574823 0.056826204
-0.016986743 0.101533905 -0.019579314 -0.07480707 -0.0742514 -0.07902092 0.076174855 -0.02702532
0.041495323 -0.07248119 -0.071409866 0.07717168 0.043216184 -0.042937182 0.053911492 -0.05959496
-0.0074088126 -0.07274267 0.02696532 -0.01403252 -0.07488449 -0.07796413 -0.028704807 0.021148607
-0.04755241 -0.075372934 0.055280805 0.02372393 0.10265884 0.08286019 0.04637009 0.06416699
-0.08159065 -0.06010488 0.07087469 0.10077275 0.07218738 -0.034659922 0.074332535 -0.10201669
0.0384036 -0.021422602 0.066661954 0.094454125 0.10095045 0.09805137 0.061157525 -0.027460046
-0.0032265782 -0.021902226 0.07127534 0.0044249967 -0.050441854 -0.047596853 -0.05262915 0.015286528
0.10263621 0.004822276 -0.11381013 0.017217105 -0.033233944 0.070498906 0.12468157 -0.049269915
-0.047247797 -0.009047496 0.0036570155 0.030772796 -0.065892905 0.040625233 -0.0044135526 0.00052490615
-0.12542222 -0.050123367 0.0352354 -0.0114034675 -0.055525243 -0.05831946 -0.034969624 0.029437339
0.039257463 -0.06676349 -0.03944187 -0.0710485 -0.003938408 -0.09742247 0.0067030783 -0.04180358
-0.06465879 -0.036768273 0.012892076 -0.08934665 -0.1626869 -0.059476733 -0.13593908 0.012389906
0.047320552 -0.02579338 0.050393492 0.014359311 -0.09477864 0.032207213 -0.14503905 -0.13406047
-0.10787417 -0.095406346 -0.039957248 -0.014773724 0.048364487 -0.06124303 -0.113945775 -0.024185771
-0.046608966 -0.12111717 -0.06647285 -0.095015 0.0019581818 0.0018331124 -0.00069152296 -0.0053196303
-0.07750099 0.03530093 -0.014993576 -0.019718679 -0.12669946 -0.07881708 -0.009884252 0.035262413
-0.15844886 -0.08534022 -0.07671245 -0.09271729 -0.09546428 -0.09540036 -0.038592774 0.009708636
0.02852616 -0.0020962746 -0.041598752 -0.051345304 0.004752158 -0.046398707 0.007171801 -0.08600744
-0.11666883 -0.036950033 0.06678899 -0.06646034 -0.03012868 -0.023897506 -0.059478503 0.07680303
-0.03213305 -0.035113722 0.054482937 0.041909188 -0.022720516 -0.04122201 0.078327104 0.0659927
0.07451834 0.08186409 0.09326817 -0.0010627881 -0.0068005025 -0.06508659 0.0861976 0.053129062
0.012983575 0.08553216 -0.086082794 0.0989337 -0.035132885 -0.079699576 -0.04360307 0.10057342
0.0027685761 -0.092351586 -0.023220606 0.023218438 0.07341392 0.056566924 -0.003061764 0.026966259
-0.027214572 0.06680663 0.055761725 -0.056201145 0.09492634 0.068833664 0.045079395 0.0667014
-0.09193447 0.01949165 -0.027683392 -0.09137587 -0.01789388 -0.03336621 0.051771462 0.082023054
0.0792221 -0.00010151416 -0.037956826 0.05767466 -0.08489947 0.0061345547 -0.06598451 0.0061254054
-0.066175185 -0.012608334 -0.044898745 0.00067956 0.004134573 -0.08024747 0.05263993 0.08617775

layers.0.bias f4 [32]
00000000: a8c7 03bc 56af 09be 2bd0 b4bd 05c3 883d
00000010: 6b18 e2bc 6459 8c3d a416 bbbc a633 023d
00000020: cc78 cc3d 9512 543c cb07 acbd 1ab5 af3c
00000030: 87fb 20be b684 943d ea1a 3a3e 6000 ddbd
00000040: c1df 0b3e 28b4 053d 294c a5bd 7a09 16be
00000050: b418 c4bd 3c7b c63c 3ee7 78bd 98d6 98bb
00000060: a827 3abd 385e bd3d e05d 243e ab67 03be
00000070: 906f 763c 4966 d13d 32d1 b3bd 148e 4d3e
-0.008043207 -0.13445792 -0.088287674 0.06677822 -0.027599534 0.068529874 -0.022837944 0.031787537
0.09983978 0.012943883 -0.08399924 0.02144866 -0.1572095 0.07251875 0.1817433 -0.10791087
0.13659574 0.032642514 -0.08071167 -0.14652053 -0.09575024 0.024228685 -0.060767405 -0.0046642534
-0.045447975 0.092464864 0.16051435 -0.12832515 0.015041247 0.102245875 -0.08780135 0.2007373

layers.2.weight f4 [16, 32]
00000000: 4dc3 debd d4ba d7bd ffc6 16be 095f 76be
00000010: 4191 40be 1294 78bd 96fd b33d 790f d83c
00000020: c992 44be b5c1 dabd b72a 10be 2f6a 213e
00000030: a438 d7bc 0ad7 eb3d 50d9 d0bc a5b0 0ebe
00000040: f1e9 a0bd 32c2 13be 8817 243d c64a d43d
00000050: 3d41 de3c 3c55 dbbd a8d9 473d fc40 b73d
00000060: d4b7 62bd 0df0 30be 1e6a 63be 5c19 18be
00000070: e49a ddbd 7a5b a2bc a1ad 20be c438 bb3d
00000080: b6de eb3d 2036 f03c c6c2 22be 585f f9bd
00000090: d090 44bd 9399 30be 5121 a3bd 5163 a5be
000000a0: 2d59 d6bd e6a4 14bd 7032 1e3d 74ce 08be
000000b0: 5983 f63c 646a 04bd 10f5 43be 3055 703d
000000c0: a8f4 403d e859 963c 6a77 f4bd f666 ea3d
000000d0: cd30 073e 0c08 0e3e 3f3e 303e 547d b4bc
000000e0: 00f9 05be f53c 083e c2ec 0ebe b01c 13be
000000f0: 0355 153e 64ba dcbd 30b6 08be 4f16 0d3e
00000100: 580e 343d 789f dd3d 3642 d63d 8962 18be
00000110: 50fb db3d 4ce5 703d 26d4 c83d 4f63 3abe
00000120: 6b88 7fbe 5fdd a2bd c0bb 3fbc 01c5 383d
00000130: faf4 7b3d e0be fdbb 31f4 09be 367f 42be
00000140: 9061 2f3e b0ee f7bc d587 a7bd bfcb 3a3d
00000150: c701 c7bd 2844 60be 2441 4a3d 7044 3fbe
00000160: 2047 69bc 0893 c83c 392e 9fbe 8b98 1fbd
00000170: 2af4 d0bd 2644 01be 3a77 2b3d 2971 cc3b
00000180: d1ae 1a3e 1d68 e7bd 2ce7 06be efd8 24be
00000190: 46ca abbd e8d7 1c3d 26c3 d93d ba47 ad3a
000001a0: 6d7c 19be d910 7dbd 5dae 27be 5771 3abd
000001b0: 116b e4bd 0e6f b23d fdbd ea3d 38f5 933d
000001c0: 57a9 4dbe 3a2b 033a 150e 95bd 1a45 373e
000001d0: 670c 183e e1fd 3ebe 0098 003d 2684 58bd
000001e0: bfe8 01be a041 cdbc acda 15bc 140d b23d
000001f0: 9621 c23d 2529 363d 5c81 313d 18b5 a13c
00000200: 1e89 c43d f9e7 15be dd5e 25be 902d 9ebe
00000210: a4c2 0d3d bcb6 863d 7baf 183e ac90 a3be
00000220: 3d6a 09be 1029 84be 6894 b23c 2050 47bd
00000230: e51f bcbe 7e52 c73d 26a8 d2bd 3294 b23d
00000240: d35d 0cbe 20d6 98bc 4019 2d3c 7a5d ac3d
00000250: d0a0 793d 7941 c8be c8ca f0bc c03c 403d
00000260: a6c3 e9bd feb5 1dbe 36e3 44be 97ce 9fbd
00000270: 1c61 05be 532a c6bd a0ef 593c 960a 61be
00000280: f576 0b3e e0b6 e5bc 1f91 08be 08b1 b43e
00000290: a094 9d3c 2e07 75bd 36cd 68bd 2a58 be3d
000002a0: 1a3a 023f dbdf 503d 1b32 173e d3d7 2dbe
000002b0: f0ab 793e 9409 2dbe 382c c93e 90d2 97bc
000002c0: 4c65 06bf 480b 113d 0004 0e39 9a20 05be
000002d0: 3ae8 7bbd 376f 573e 16cb 8abd 0abd b23b
000002e0: 1ffc 323e c052 313d 1d22 c0bd ba3e e33d
000002f0: d72a 1c3e b4e8 333e 5087 25bd 24c7 36bf
00000300: 00f3 1c3a 4a45 e53d c000 ba3b cb60 cb3e
00000310: 0179 8dbc 2028 133d 335e 133e b455 e53d
00000320: 4ac6 5f3e 9b1c c03d 0cdc 333d c06b bdbd
00000330: 4dd5 603e 0c30 923d b080 4e3e d63f 413e
00000340: 0f6c b93e 0f04 73bc 066b 423e 2497 2c3e
00000350: 1d64 34bb 5e4a 903e 88ea 0dbe e501 6d3e
00000360: 0cf3 563d ea64 c4bd fe0e 813e a6a6 9bbd
00000370: 299c ddbd 29ea 133e 88f0 093e a279 ee3e
00000380: 381d 26bd 611a 3cbe 8c67 70bd 5dab e3bc
00000390: 4536 37bd 8256 9d3d 6c7c 473d 60c6 303c
000003a0: 088d 6cbe 0969 efbd 7aad af3d 4a9e bc3d
000003b0: 1408 3bbe 1025 3dbc bebb 50bd ce07 9e3d
000003c0: 5e8b 26bd e74c ddbd 499b 3d3d d0f2 d83d
000003d0: ce17 20bc 0c1f 1bbd db28 98bd 2d7d 52be
000003e0: 4ad0 acbd 2859 743d 0ac8 40bd eed4 9c3c
000003f0: ddbb 053e d452 40be 320b 3dbd 531b c93d
-0.108770944 -0.105336815 -0.14724348 -0.2405969 -0.1880541 -0.060688086 0.08788602 0.026374565
-0.19196619 -0.10681478 -0.14078794 0.15763162 -0.026272126 0.11515625 -0.025494248 -0.13934572
-0.07857121 -0.14429548 0.040061504 0.103658244 0.027130717 -0.107096165 0.048791558 0.08947942
-0.055351093 -0.17279072 -0.22208449 -0.14853424 -0.10820559 -0.01981901 -0.15691234 0.091416866
0.11517088 0.029322684 -0.15894613 -0.121763885 -0.047989666 -0.17246084 -0.07965339 -0.32302335
-0.10466228 -0.036290072 0.03862232 -0.13360006 0.030091928 -0.032328025 -0.19136453 0.05867499
0.047108322 0.018353418 -0.11936839 0.114454195 0.1320221 0.13870257 0.17211245 -0.022032417
-0.13083267 0.13304503 -0.13957503 -0.14366412 0.1458321 -0.10777739 -0.13350749 0.13778041
0.04395899 0.10821432 0.104618475 -0.14881338 0.107412934 0.058812425 0.09806089 -0.18201946
-0.24954383 -0.079523794 -0.011702478 0.045109753 0.061512925 -0.0077437013 -0.13472058 -0.1899384
0.17127061 -0.030265182 -0.08180205 0.045604464 -0.09717136 -0.21901 0.04937853 -0.1867845
-0.014238149 0.024484172 -0.31089953 -0.038963836 -0.102028206 -0.12623653 0.04186175 0.0062390757
0.1510575 -0.11299155 -0.13174123 -0.16098379 -0.0838819 0.03829184 0.10632925 0.0013220229
-0.14988871 -0.061783645 -0.16375108 -0.045518246 -0.11153234 0.08712588 0.11462019 0.07224506
-0.2008413 0.00050036947 -0.072780766 0.17897454 0.14848481 -0.18651535 0.03139496 -0.0528604
-0.12686442 -0.025055707 -0.009146374 0.08693901 0.09479062 0.044472832 0.043336257 0.019739673
0.095964655 -0.14639272 -0.16149469 -0.30894136 0.034609452 0.065778226 0.1491069 -0.31946313
-0.13419433 -0.25812578 0.021799281 -0.048660398 -0.36743084 0.09732531 -0.10285978 0.08719672
-0.13707666 -0.01865679 0.010565102 0.08416267 0.06094438 -0.39112452 -0.029393569 0.046932936
-0.1141427 -0.15401456 -0.19227299 -0.07803076 -0.13025326 -0.096760415 0.01330176 -0.21976694
0.13619597 -0.028041303 -0.1333661 0.35291314 0.019235909 -0.0598213 -0.05683633 0.0929416
0.50869906 0.050994735 0.14765207 -0.16976862 0.24381995 -0.16898185 0.3929155 -0.018533021
-0.52498317 0.03541115 0.00013543665 -0.13000718 -0.061500765 0.21038519 -0.06777017 0.005454664
0.17478989 0.043291807 -0.093815066 0.110959485 0.15250717 0.17569238 -0.040412247 -0.71397614
0.00059871376 0.111948565 0.005676359 0.39722285 -0.017269613 0.035926938 0.14391403 0.11197987
0.21852985 0.09380456 0.043911025 -0.09249067 0.21956368 0.071380705 0.20166278 0.18872008
0.36215255 -0.014832511 0.18986139 0.1685453 -0.0027525492 0.28181738 -0.13858998 0.23145254
0.05247788 -0.0958956 0.2520675 -0.07600145 -0.10820801 0.14444794 0.13470662 0.46577173
-0.04055521 -0.18369438 -0.0586925 -0.027791673 -0.04472949 0.07682516 0.048702642 0.010789484
-0.23100674 -0.11689956 0.0857801 0.09209879 -0.182648 -0.011544481 -0.050960295 0.077163324
-0.040660255 -0.108056836 0.04629067 0.10593188 -0.0097713005 -0.037871405 -0.074296676 -0.20555563
-0.084381655 0.05965534 -0.047065772 0.019144502 0.13059945 -0.18781596 -0.046153255 0.09819665

layers.2.bias f4 [16]
00000000: 8c2b a7bd baaf b6bd e364 6ebd 5332 96bd
00000010: 6e86 28be de3e 3b3d c00f ed3e 571f 4ebe
00000020: ea0e e3bd 70dd d63d aeff 34be d538 0fbd
00000030: 4ea3 823d 16c3 85bd e95a 0b3b 0963 a5bd
-0.08162603 -0.08920236 -0.05820168 -0.07333817 -0.16457531 0.04571425 0.4630108 -0.20129143
-0.11086829 0.104914546 -0.17675659 -0.03496631 0.06378804 -0.0653135 0.0021263903 -0.0807553

layers.4.weight f4 [8, 16]
00000000: fc6f f9bd 8051 e6bd 589c 6ebd 9080 c83d
00000010: f4f0 eabd e8e2 283d 0a45 7ebe 8c6d 37be
00000020: 2857 b8bd c0a7 89bb 0658 663e f2c3 173e
00000030: 5045 0b3d c4e7 a7bd 0052 413b 7855 453d
00000040: b8b4 67be b4eb 593e 844d 2f3e ac95 34be
00000050: 30fc c03d 168e 5cbe 3c84 eabd 6050 79be
00000060: 78c1 d63d f0f2 c1bd 8808 ae3d e0b2 853d
00000070: bc2d 80bd 4af7 17be 7a98 26be 46a1 76be
00000080: 003b 9fbd c246 05be 40e4 21be 2caf 143c
00000090: c874 dc3d 6a30 f2bd 6db2 0fbe a6e4 1cbe
000000a0: 636a afbd af06 9ebe 8c9a ffbd fb0f c73d
000000b0: 3d61 423e 9ac8 11be fc69 fe3d 6c51 883d
000000c0: 2188 943d b868 3b3e 4f31 5a3e abeb 9ebd
000000d0: 6416 413e 2c31 2dbe ecf1 c33e 3e01 49bd
000000e0: 0612 64bd 46ea 813c 7a5e 1abe 8301 403e
000000f0: 7534 48bc 2cc7 1b3d 4e39 4a3e a0e5 59bd
00000100: bd7f e43d c5bf 723d 78e6 fd3d 1aca 3cbe
00000110: de72 243e 6e91 abbf 5639 78bc a9a7 ee3d
00000120: 07d5 96bd 6bc7 933c 9a27 27bb 0eed 68bc
00000130: ea32 e03d 2ef2 d0bd 82d0 5f3b a824 59bd
00000140: 8a07 143e 5370 fdbd 371d 8d3d e313 dd3d
00000150: afb7 913e 14a5 d3be 5d12 a93d 7856 963e
00000160: 0650 86bd 579a 96be d6b2 193f 671e 8f3e
00000170: c4db f2bd b8d2 18be a86c 0c3d 4899 c73d
00000180: fc86 13be 4824 093d 37bb 323e 47f5 77be
00000190: c6b5 3bbe c47a 18be 0f49 8fbe 5d89 3d3e
000001a0: 002c 9b3d b8ba 653e 00c7 eb3c bd61 953d
000001b0: d46d fe3d 95c9 37be d5fa 6c3c ec19 f43d
000001c0: 1240 063e 8099 30bc d118 a93d bc9a 97be
000001d0: 28f5 54bd f4e6 91bd 8cc1 c2bd d53b 9bbe
000001e0: e9eb 363e 8dde 05bf 4e07 5a3e f4a4 df3d
000001f0: c7ff 243e 647e 01be 2beb 9cbe 0ee6 6d3e
-0.121795624 -0.11246014 -0.05825457 0.09790146 -0.114717394 0.04123202 -0.24831024 -0.17912883
-0.09000999 -0.0042009056 0.22494516 0.14820841 0.03400165 -0.08198503 0.0029498339 0.048177212
-0.22627532 0.2128132 0.17119414 -0.1763522 0.09423101 -0.21538576 -0.11451003 -0.24347067
0.1048612 -0.09470165 0.08497721 0.06528258 -0.06258723 -0.14840427 -0.16269103 -0.24084958
-0.07774925 -0.13015273 -0.15809727 0.009074967 0.10764462 -0.118256405 -0.14032908 -0.15321597
-0.085652135 -0.30864474 -0.12480649 0.09719845 0.18982406 -0.1423668 0.12422559 0.06656155
0.07252527 0.18301666 0.21307872 -0.07759794 0.18856198 -0.16913289 0.3827051 -0.04907345
-0.05568125 0.01585878 -0.15075102 0.18750577 -0.012219538 0.038031742 0.19748423 -0.053197503
0.11157177 0.059264917 0.12397474 -0.1843647 0.16059443 -1.3403757 -0.015150389 0.116530724
-0.073648505 0.018039426 -0.0025505782 -0.0142166745 0.10947211 -0.10202442 0.003415138 -0.053013474
0.14456001 -0.1237494 0.06890338 0.10794809 0.28460452 -0.41336882 0.08255456 0.29362845
-0.06558232 -0.29414627 0.60038507 0.27952883 -0.11858323 -0.14924133 0.03428331 0.09746033
-0.14406961 0.033481866 0.1745423 -0.2421466 -0.1833106 -0.14890581 -0.27985427 0.18509431
0.07576752 0.22434509 0.028781414 0.07294033 0.12423292 -0.17947991 0.0144641 0.11919007
0.13110378 -0.010778785 0.082566865 -0.2961024 -0.05199161 -0.07124129 -0.095095724 -0.30319086
0.1786343 -0.5229271 0.21291849 0.10920134 0.16113196 -0.1264587 -0.3064817 0.2323229

layers.4.bias f4 [8]
00000000: 6e27 703e 1002 5fbe f3b1 29be 4379 163f
00000010: b7ce 94be 4243 f3bf 85a7 9ebe 0391 1b3e
0.23452541 -0.2177813 -0.16571788 0.5877878 -0.2906396 -1.90049 -0.30987182 0.15192036

layers.6.weight f4 [1, 8]
00000000: 64f1 043e 2802 65be dfd2 6bbe 8c54 a13e
00000010: 9b0b 563d 3757 1d3d 13ca 10be 44f7 0fbe
0.12982708 -0.22364104 -0.2302966 0.31509817 0.05225716 0.038413253 -0.14139585 -0.14059168
