深度学习/作业&练习/HW1/models/model.ckpt (torch, 8711 bytes, 5 tensors)

layers.0.weight f4 [16, 94]
-0.2872268 0.09751816 0.068372846 -0.00343299 0.08807004 0.020844156 -0.024434136 0.0379831
0.047404367 0.014640801 -0.019813882 -0.01835453 -0.018493867 -0.015997253 0.02306253 0.014860044
0.053819224 0.023468077 0.100204974 0.0745833 0.07518414 -0.06454756 0.072830655 0.08206467
0.067556664 -0.047136996 0.057263568 0.079042435 -0.09960425 0.07196557 0.06189508 -0.091151275
-0.013518139 -0.032275338 -0.01622511 0.043641347 -0.026035115 -0.079791695 0.042339392 0.056517966
-0.016902376 0.100751385 -0.019721039 -0.081439026 -0.07971168 -0.098642565 0.073736064 -0.03412551
0.028772151 -0.075921096 -0.079298735 0.07428924 0.042473476 -0.046805605 0.050656915 -0.06360411
-0.021807533 -0.082385235 0.022727694 -0.014198778 -0.0747311 -0.08459598 -0.03442131 0.0009772981
-0.04932511 -0.08218907 0.042513784 0.01978474 0.09386851 0.07995962 0.045609474 0.05972666
-0.08411903 -0.06411669 0.056032177 0.090196565 0.067679636 -0.034716424 0.073689766 -0.10853612
0.03231196 -0.04138009 0.06428618 0.08674477 0.08795395 0.09373088 0.052614927 -0.02976223
-0.0037219145 -0.025886834 0.06793114 6.0947114e-05 -0.06465599 -0.051241517 0.008883089 0.038798902
0.09506636 0.0090209395 -0.07799192 0.053825926 -0.046717588 0.05657698 0.069246374 0.02005324
-0.012344194 0.010293836 0.06266154 0.067993194 -0.051209725 0.0957722 -0.0008388598 0.033044368
-0.06951495 0.015844546 0.09830958 0.04853183 0.004117468 -0.013446536 0.0019002239 0.07642279
0.11098626 0.0010511045 0.022346776 -0.022874791 0.060518723 -0.049551215 0.041045874 0.020525994
0.009254179 0.011544918 0.076597266 -0.042787887 -0.095209874 0.009200056 -0.077608615 0.07292957
0.10505044 0.14361635 0.26679108 0.082293205 -0.14165947 0.112329386 -0.19937365 -0.09861731
-0.15926053 -0.10146691 0.006619505 0.038111154 0.07399094 0.027148645 -0.07277278 0.14307195
-0.17781031 -0.08008998 -0.027248455 0.04665663 0.18751678 0.07670817 -0.0081286505 0.0043612863
-0.10772789 0.075783566 -0.031461205 -0.038812146 -0.08070665 -0.080746226 0.037848387 0.098114945
-0.09740692 0.062431462 -0.8591555 -0.080635 -0.08462801 -0.035214193 0.063977 0.09401748
0.052716833 0.0050063357 -0.006582808 -0.021295546 0.015313188 -0.07636628 0.057441242 -0.13045488
-0.077057555 0.009085151 0.11663917 -0.006487839 -0.029967993 -0.023770057 -0.059161283 0.07639341
-0.031961672 -0.03492645 0.05419235 0.041685686 -0.02259934 -0.041002158 0.077909365 0.06564073
0.07412091 0.08142747 0.09277074 -0.0010571182 -0.006764233 -0.06473946 0.08573787 0.052845716
0.01291433 0.08507599 -0.08562368 0.09840605 -0.03494551 -0.079274505 -0.04337052 0.10003702
0.002753809 -0.09185904 -0.023096763 0.023094594 0.07302238 0.056265235 -0.0030454323 0.026822433
-0.027069427 0.06645033 0.055464327 -0.055901404 0.094420075 0.068466544 0.044838965 0.06634566
-0.09144415 0.019387692 -0.027535744 -0.09088853 -0.017798446 -0.03318826 0.051495343 0.0815856
0.07879959 -0.00010097027 -0.037754387 0.057367057 -0.08444667 0.0061018392 -0.06563259 0.006092742
-0.06582224 -0.012541093 -0.044659283 0.0006759316 0.004112527 -0.079819486 0.05235918 0.08571814
00000000: 640f 93be 9ab7 c73d 1007 8c3d 04fc 60bb
00000010: 115e b43d 5dc1 aa3c 192a c8bc 2b94 1b3d
00000020: 152b 423d f8df 6f3c b950 a2bc 3d5c 96bc
00000030: 7380 97bc ac0c 83bc a2ed bc3c 8b77 733c
00000040: 8c71 5c3d 2040 c03c 4438 cd3d 21bf 983d
00000050: 24fa 993d 8331 84bd 3d28 953d 8611 a83d
00000060: 265b 8a3d b912 41bd 348d 6a3d 00e1 a13d
00000070: 50fd cbbd af62 933d b285 7d3d 85ad babd
00000080: 2f7b 5dbc 2533 04bd 86ea 84bc 45c1 323d
00000090: 9847 d5bc d469 a3bd 126c 2d3d 627f 673d
000000a0: da76 8abc be56 ce3d 048e a1bc 81c9 a6bd
000000b0: e13f a3bd 1d05 cabd ef02 973d 31c7 0bbd
000000c0: 93b3 eb3c 857c 9bbd 6067 a2bd f524 983d
000000d0: abf8 2d3d 3cb7 3fbd a07d 4f3d df42 82bd
000000e0: b6a5 b2bc 97b9 a8bd 6e2f ba3c fea1 68bc
000000f0: 9e0c 99bd a840 adbd 5cfd 0cbd af18 803a
00000100: 2009 4abd be52 a8bd ef22 2e3d 9b13 a23c
00000110: 223e c03d dfc1 a33d 00d1 3a3d f1a3 743d
00000120: 9946 acbd 9c4f 83bd ff81 653d fab8 b83d
00000130: 9f9b 8a3d cf32 0ebd a9ea 963d 2f48 debd
00000140: 8c59 043d 2b7e 29bd 79a8 833d 3ea7 b13d
00000150: 3321 b43d faf5 bf3d c082 573d eccf f3bc
00000160: 5deb 73bb a010 d4bc 7b1f 8b3d 77a1 7f38
00000170: 5c6a 84bd a0e2 51bd 608a 113c 99eb 1e3d
00000180: 27b2 c23d 90cc 133c 3aba 9fbd 9378 5c3d
00000190: f15a 3fbd 43bd 673d 0bd1 8d3d b146 a43c
000001a0: 4d3f 4abc 7aa7 283c b254 803d 0440 8b3d
000001b0: 4ac1 51bd 3724 c43d eee6 5bba 8859 073d
000001c0: db5d 8ebd 6ccc 813c 8856 c93d 50c9 463d
000001d0: d3eb 863b dc4e 5cbc ef10 f93a 8d83 9c3d
000001e0: c44c e33d 37c5 893a 9610 b73c ea63 bbbc
000001f0: 7be2 773d 37f6 4abd b81f 283d 2126 a83c
00000200: d79e 173c e526 3d3c 07df 9c3d 5a42 2fbd
00000210: 65fd c2bd d5bb 163c 44f1 9ebd 195c 953d
00000220: af24 d73d 2a10 133e d798 883e 5789 a83d
00000230: 2e0f 11be f30c e63d 9b28 4cbe dff7 c9bd
00000240: 3115 23be e2cd cfbd 6fe8 d83b 711a 1c3d
00000250: 9088 973d d666 de3c e509 95bd 7481 123e
00000260: e813 36be 3706 a4bd 2738 dfbc 061b 3f3d
00000270: 6604 403e 2c19 9d3d 082e 05bc 1fe9 8e3b
00000280: 71a0 dcbd 6a34 9b3d 77dd 00bd 7cf9 1ebd
00000290: 8749 a5bd 475e a5bd e906 1b3d 7df0 c83d
000002a0: 477d c7bd 22b8 7f3d 9df1 5bbf f623 a5bd
000002b0: 7351 adbd c23c 10bd 6006 833d 3d8c c03d
000002c0: 9bed 573d 300c a43b 99b4 d7bb ff73 aebc
000002d0: 2ae4 7a3c ed65 9cbd 8247 6b3d f795 05be
000002e0: 5ad0 9dbd e3d9 143c 84e0 ee3d f097 d4bb
000002f0: 707f f5bc 6cb9 c2bc 1a53 72bd 2674 9c3d
00000300: 3eea 02bd 0a0f 0fbd ccf8 5d3d 9cbe 2a3d
00000310: 4022 b9bc e1f1 27bd f28e 9f3d a66e 863d
00000320: b4cc 973d 72c3 a63d 96fe bd3d 008f 8aba
00000330: 80a6 ddbb 1f96 84bd 5697 af3d c074 583d
00000340: a096 533c 523c ae3d 785b afbd 1c89 c93d
00000350: 0623 0fbd ac5a a2bd 49a5 31bd 36e0 cc3d
00000360: 4079 343b 9820 bcbd 6c35 bdbc e030 bd3c
00000370: c28c 953d 6076 663d e095 47bb b8ba db3c
00000380: b4c0 ddbc 1c17 883d 902e 633d dff8 64bd
00000390: 505f c13d 3038 8c3d 10a9 373d 3ce0 873d
000003a0: 1247 bbbd f0d2 9e3c a492 e1bc c423 babd
000003b0: 0cce 91bc 6af0 07bd c8ec 523d 5a16 a73d
000003c0: ae61 a13d 00c0 d3b8 58a4 1abd b8f9 6a3d
000003d0: 60f2 acbd f0f1 c73b 616a 86bd a0a5 c73b
000003e0: d0cd 86bd 2879 4dbc a7ec 36bd 0031 313a
000003f0: 60c2 863b 6678 a3bd 9476 563d fe8c af3d

layers.0.bias f4 [16]
0.014546594 -0.051507935 0.0073069558 0.079502136 -0.092094555 -0.03505133 -0.039035738 -0.05045702
-0.017378587 -0.008682125 0.08176774 0.0054179765 0.010789133 -0.009363739 0.025726516 -0.084973186
00000000: d654 6e3c fcf9 52bd 306f ef3b 04d2 a23d
00000010: 129c bcbd fc91 0fbd f0e3 1fbd 05ac 4ebd
00000020: 8a5d 8ebc 793f 0ebc d875 a73d 4889 b13b
00000030: e7c4 303c 5e6a 19bc 6ac0 d23c 6c06 aebd

layers.2.weight f4 [8, 16]
-0.13273475 -0.25615975 -0.16245404 -0.0349164 -0.04764362 -0.13690665 0.12907925 -0.04413119
-0.13854522 0.20093001 0.054722607 0.25228804 -0.08877744 0.108546175 0.07470864 0.026627656
-0.17208725 0.023256484 0.23443231 0.05808431 0.23105194 0.2201331 0.14465952 -0.17401849
0.047241226 0.15342154 0.0747665 0.1438754 -0.113565624 -0.06345908 0.2302876 -0.12513717
0.122070454 -0.011964711 -0.21551627 0.013902456 -0.23533954 0.087465614 -0.031035066 0.14194086
0.17328201 -0.12840801 -0.24599732 -0.2226008 0.1877424 -0.2417141 -0.00059209776 -0.0354179
0.016324967 0.0063021467 0.24380642 -0.06871733 0.1356296 0.14601347 0.23244593 0.1352509
-0.16000079 -0.18986806 0.1721583 -0.22871205 -0.22274408 0.11084667 -0.055106822 0.016974045
-0.23236787 -0.17346384 0.24442485 0.03539267 -0.11261486 0.12336233 0.014437914 -0.12232689
0.08887427 0.31408265 -0.004464461 0.11576913 0.101760656 0.30939156 0.13683476 0.23490885
-0.057222776 -0.25811076 -0.20743778 0.2400819 0.14440681 0.080090195 0.025740236 -0.23836073
-0.1367653 0.12616678 0.16471824 0.08515453 0.12651454 -0.013913935 -0.032114185 -0.13681988
0.05914457 0.052576557 0.19961527 -0.09606737 -0.16425754 0.2040039 0.043516904 -0.22599567
-0.28830266 0.12821895 -0.0022691379 0.11914781 0.01047528 -0.17819604 -0.02937568 0.16060738
-0.13461843 -0.21858697 0.027139843 0.08100703 0.19662887 0.06745723 0.21857387 -0.09726068
0.111206315 0.06973138 0.054229457 0.007207151 0.0068236124 0.044421896 -0.28699815 0.10992449
00000000: 9eeb 07be 5f27 83be 5a5a 26be 8004 0fbd
00000010: f525 43bd 4231 0cbe 5a2d 043e e8c2 34bd
00000020: ccde 0dbe 99c0 4d3e d024 603d e62b 813e
00000030: f2d0 b5bd 754d de3d d800 993d 3e22 da3c
00000040: a437 30be 6284 be3c 060f 703e d0e9 6d3d
00000050: e198 6c3e 926a 613e a021 143e e731 32be
00000060: 0480 413d 891a 1d3e 2e1f 993d 1354 133e
00000070: 1895 e8bd d6f6 81bd 83d0 6b3e f523 00be
00000080: 1300 fa3d a307 44bc 4cb0 5cbe 20c7 633c
00000090: d9fc 70be 2c21 b33d 403d febc f258 113e
000000a0: d770 313e 647d 03be b9e6 7bbe 77f1 63be
000000b0: 8b3f 403e e783 77be 0237 1bba 5c12 11bd
000000c0: f0bb 853c 3d82 ce3b 64a8 793e acbb 8cbd
000000d0: 7ce2 0a3e 8e84 153e 4e06 6e3e 367f 0a3e
000000e0: 3fd7 23be c66c 42be 444a 303e 7e33 6abe
000000f0: 0617 64be 9403 e33d b1b7 61bd 270d 8b3c
00000100: d8f1 6dbe 81a0 31be 824a 7a3e e8f7 103d
00000110: 9fa2 e6bd 64a5 fc3d 008d 6c3c 8586 fabd
00000120: b703 b63d 71cf a03e 9d4a 92bb 5e18 ed3d
00000130: e467 d03d 9268 9e3e 691e 0c3e f28b 703e
00000140: 6e62 6abd 1827 84be 926a 54be 08d8 753e
00000150: 61df 133e 5406 a43d 30dd d23c d614 74be
00000160: 340c 0cbe dd31 013e e6ab 283e 8065 ae3d
00000170: 078d 013e 46f7 63bc 2a8a 03bd 831a 0cbe
00000180: 9441 723d 845a 573d f267 4c3e f8be c4bd
00000190: 2133 28be 66e6 503e c83e 323d 696b 67be
000001a0: 689c 93be d44b 033e d1b5 14bb c403 f43d
000001b0: 82a0 2b3c 0679 36be 44a5 f0bc 4376 243e
000001c0: 6ad9 09be 43d5 5fbe 6054 de3c 04e7 a53d
000001d0: 1459 493e 0427 8a3d d4d1 5f3e 9b30 c7bd
000001e0: 23c0 e33d 53cf 8e3d b51f 5e3d f729 ec3b
000001f0: 9c98 df3b bcf3 353d 6cf1 92be 1720 e13d

layers.2.bias f4 [8]
-0.22593766 0.21199195 0.18803552 -0.005570779 0.19624738 -0.07178901 -0.029838933 0.1630006
00000000: 345c 67be 6b14 593e 628c 403e 158b b6bb
00000010: 13f5 483e 1e06 93bd c770 f4bc a1e9 263e

layers.4.weight f4 [1, 8]
0.11371999 0.09637095 -0.18853068 0.200612 0.32207644 0.0702223 0.15604901 0.22681816
00000000: 07e6 e83d 225e c53d 300e 41be 3b6d 4d3e
00000010: 34e7 a43e b6d0 8f3d 50cb 1f3e 0543 683e
